model/210106.pth (torch, 903231 bytes, 8 tensors)

conv1.weight f4 [32, 1, 3, 3]
000000 eb 37 ad bd b5 86 c1 be 09 71 92 be df 13 1e be
       -0.08457931 -0.37798086 -0.28601864 -0.15437268
000010 b3 eb 96 bd 3c fe b6 be 20 9a 8e 3e 00 d7 1c 3e
       -0.07369175 -0.3574084 0.27851963 0.15316391
000020 54 04 a5 3d e9 fb 2b be 5a d8 4a 3e 11 d5 38 be
       0.08057466 -0.16795315 0.19809094 -0.18050028
000030 4e cc 60 be a8 9e ad be f9 4f 19 be 77 07 72 be
       -0.21952936 -0.33910108 -0.14971913 -0.2363566
000040 2f 37 1b 3e c0 ba 17 be 62 47 e6 be 7d cd 1e 3e
       0.1515777 -0.14817333 -0.44976336 0.15508075
000050 c1 f7 49 3e f2 42 f2 3e 91 98 bc 3e f0 3d 12 be
       0.19723417 0.473167 0.3683515 -0.1428144
000060 5a c9 e1 be cb ba 05 3d 73 2e c1 3e ee e9 39 be
       -0.44098932 0.032648843 0.3773075 -0.18155643
000070 1c 1d 83 be 58 9a e0 3e 1c 75 bc 3e b6 74 3d be
       -0.25608146 0.43867755 0.36808097 -0.18501553
000080 f4 55 de 3d 63 fd 83 3e 98 f0 ae be 8b d5 68 be
       0.10856238 0.25779256 -0.34167933 -0.2273771
000090 9e ee a3 be cb 09 f6 3e 41 21 48 be ee f0 1c bd
       -0.32017988 0.48054346 -0.19543935 -0.038315706
0000a0 8b 0b 49 3e 1f ba 9e bb da 6e 89 3c ef 54 8e be
       0.1963331 -0.0048439647 0.016776491 -0.27799174
0000b0 63 3b 37 3e bf c6 ac 3e 38 4f 7b be d9 ec 92 be
       0.17893748 0.3374538 -0.24541938 -0.28696325
0000c0 c8 56 4c 3e 07 95 bd 3e 09 69 b1 be 1c 45 b7 be
       0.1995498 0.3702776 -0.34650448 -0.35794914
0000d0 d6 aa e4 3e b1 cd b8 bd 08 0a 85 be 46 74 f7 bd
       0.44661587 -0.090236075 -0.25984216 -0.12082724
0000e0 86 a6 a1 3e 99 be 01 be db 11 81 3c 61 94 bb 3e
       0.3157236 -0.12670363 0.015755584 0.36636642
0000f0 0e eb ab be 74 d3 df bd 8d 44 8f 3e fe bc 92 be
       -0.3357777 -0.10929003 0.27981988 -0.28659815
000100 13 d1 68 3e 13 b1 6b be 9c 5c 77 be 96 cf f3 3c
       0.22736005 -0.23016767 -0.24156421 0.02976207
000110 fc ce a1 bd 20 e8 2d bd 82 06 82 3e 93 82 6a be
       -0.07900807 -0.0424577 0.2539559 -0.22901373
000120 00 23 aa be 8d a4 a9 3e 9d af 95 3c df a4 90 be
       -0.33229828 0.33133355 0.018272216 -0.28250787
000130 0f 65 2c bb 9c c1 95 3e 1a 4a f7 be 86 64 0d 3e
       -0.0026305353 0.29249275 -0.48298723 0.13807878
000140 77 83 b5 3e c8 2f a0 be 56 6c aa 3e 5f f3 e2 3e
       0.35451862 -0.31286454 0.3328578 0.44326302
000150 06 71 81 3d 16 b6 81 3d cb 93 5b be fb 16 87 3e
       0.06320386 0.06333558 -0.21443097 0.2638472
000160 8f 2a b0 be ee 80 96 be fc 31 1d 3e c4 4e a7 be
       -0.3440747 -0.2939524 0.15351099 -0.3267728
000170 12 f3 d4 3d 6f 76 83 be 3c f1 05 3e 20 33 37 3e
       0.103979245 -0.25676295 0.13080305 0.17890596
000180 e6 fc 2a 3e 53 ad 53 3e cf fd 4d be dd c6 a7 3c
       0.16698036 0.20671587 -0.20116352 0.020480568
000190 2a 6b 2c be c2 55 97 3d 82 87 da bd 4c 46 e1 3d
       -0.16837755 0.07389404 -0.10670377 0.10999736
0001a0 0a 99 b7 3c f8 1b 84 3d 4e 23 84 3e 34 e5 a9 3e
       0.022411842 0.06450647 0.25808185 0.3318268
0001b0 dc 9c ab be 70 39 ee 3e e8 36 ba bd d6 dd ed be
       -0.33518112 0.46528196 -0.09092504 -0.4645831
0001c0 da a8 b5 3e d4 f0 eb 3d 69 da 7f bd 43 89 55 3e
       0.35480386 0.11520544 -0.06246415 0.20853142
0001d0 c1 70 2c be a1 d3 a3 3e 33 73 4b bd 27 c8 d2 be
       -0.16839887 0.31997398 -0.04967041 -0.4116833
0001e0 78 cb af bd bb e5 8d be 12 1c a8 be 0a 40 4a be
       -0.085837305 -0.27714333 -0.32833916 -0.19750991
0001f0 91 e1 01 3f 81 71 0b 3f 62 df c3 3e 2f b3 a3 be
       0.5073481 0.5447007 0.38256365 -0.31972644
000200 94 4a 7f bd b9 b4 76 3e a5 16 77 3e dc 16 e9 be
       -0.062326983 0.24092378 0.24129732 -0.45525253
000210 5a 64 bd 3d d4 0d a8 bc 39 aa 44 bd 94 fc a2 3e
       0.09247656 -0.020514406 -0.0480139 0.31833327
000220 33 d9 d1 bc 78 ce 9c be 2c 35 14 3e 64 f5 70 3e
       -0.025616264 -0.30626273 0.14473408 0.23531109
000230 eb 89 c0 be 89 4e 01 3e 4d e5 9f 3e 7a b4 d0 be
       -0.37605223 0.12627615 0.3122963 -0.40762693
000240 1e 69 4b 3e 2d aa 88 be 9a bd 6e be 82 e8 08 be
       0.19864318 -0.26692334 -0.23314515 -0.13369945
000250 08 ac b9 bd bf 2a 93 3e 6a 6a 0e bd f8 50 bb 3e
       -0.090660155 0.2874355 -0.034769453 0.36585212
000260 59 d4 bc 3e 7e a3 6c bd c6 44 7b be cc 36 a5 be
       0.36880758 -0.057773106 -0.24537954 -0.3226837
000270 d0 70 09 bd 8a fd 92 bd 73 cf a4 bb 54 98 d9 bc
       -0.033554852 -0.07177265 -0.0050296127 -0.026561894
000280 fa f1 cf bd 15 44 c4 3c 6f a5 7e 3d 5b 43 5a 3d
       -0.10153575 0.023958245 0.06216949 0.05328689
000290 85 50 49 3e a1 8c a9 3d a1 08 54 3e ab ce 4b 3e
       0.19659622 0.08278776 0.20706417 0.19903056
0002a0 6a 15 18 3e 0e 4c 96 3e 93 09 4b be c8 a3 47 3e
       0.14851919 0.293549 -0.19827871 0.19496071
0002b0 35 4e 16 be 1c 6c 86 3e fe 4b bf be 7e a4 e4 be
       -0.14678271 0.26254356 -0.37362665 -0.44656748
0002c0 71 63 e1 be 98 4c 34 3e be c3 fd bd 49 0e a0 3d
       -0.4402118 0.17607343 -0.123908505 0.07815225
0002d0 bf dc 2a be c2 e5 ff be 7e b0 d6 3e d7 22 87 be
       -0.1668577 -0.4997998 0.41931528 -0.26393768
0002e0 08 2a 23 be 32 a3 c4 3e bb 29 94 3e 01 21 49 be
       -0.15934002 0.38405758 0.28938088 -0.19641496
0002f0 93 ed ce 3d ac 7d c6 be 80 d4 ba bd 2e 33 d5 3e
       0.101039074 -0.38767755 -0.091225624 0.4164061
000300 fe 7a 44 be 71 77 c1 be f2 05 c1 3e 62 d2 fd be
       -0.19187543 -0.3778644 0.37699848 -0.49574572
000310 db 28 ca 3d 9a 54 82 3e 33 81 27 3d 55 a1 ce bd
       0.09871074 0.2545517 0.0408947 -0.100893654
000320 a9 51 6f 3e bf 6b cc be 69 3c 6a bd a5 b5 e3 3e
       0.23370995 -0.39925954 -0.057186518 0.4447452
000330 35 9b d6 be 65 7d 27 3d 90 8f 79 3e 47 52 98 3e
       -0.4191529 0.04089107 0.24371171 0.29750273
000340 11 cd 13 3e be c0 87 3d 98 e6 06 be 59 e0 96 3e
       0.14433695 0.066285595 -0.13173902 0.2946804
000350 7d c5 ab 3e 4a d7 89 be 70 b4 a9 be 5a 11 a7 be
       0.3354911 -0.26922065 -0.33145475 -0.32630426
000360 e0 7d 49 3e a2 a8 62 3e a0 7d cd be 7c 8e 12 3e
       0.19676924 0.22134641 -0.40134907 0.14312166
000370 29 5a ae bd b8 76 a1 be a0 c4 70 3e aa 02 bb bd
       -0.085132904 -0.31535888 0.23512506 -0.091313675
000380 d7 52 1e 3e 5e 95 2c be 84 37 09 be 86 e6 c5 be
       0.15461288 -0.16853854 -0.13400084 -0.38652438
000390 1b 13 86 bd b4 fe ad 3e ca 8a dd 3d fd 05 6d be
       -0.06546613 0.33983386 0.108174875 -0.23146816
0003a0 2a 7a 8e 3e 53 01 b9 3e cd d6 ae 3e 4d 24 1c 3e
       0.2782758 0.36133823 0.34148255 0.15248223
0003b0 d1 af 57 3e e6 8f 37 be 25 b3 cd bb 0b a8 54 3e
       0.21063162 -0.17925987 -0.006277459 0.20767228
0003c0 62 b9 ad bd 6f 32 d9 be a3 e9 e1 be ba 9e aa bd
       -0.084826246 -0.4242129 -0.44123563 -0.08331056
0003d0 c5 f3 5c be 94 39 3c be 22 36 86 bd b4 69 2c be
       -0.21577366 -0.1838134 -0.06553294 -0.16837198
0003e0 b0 08 5c bc 2d 6f af 3e 9b df 79 be 56 3a 91 bd
       -0.013429806 0.34264508 -0.24401705 -0.07091205
0003f0 34 34 8e 3e fd e9 eb 3d ba 7f 06 3e 9d c2 aa bd
       0.27774203 0.11519239 0.13134661 -0.08337901

conv1.bias f4 [32]
000000 f8 e6 06 bf 03 b1 d3 be 95 0c 68 be 56 ee 12 ba
       -0.5269618 -0.41345987 -0.2266105 -0.0005604973
000010 3f e4 0f bb ed cc a2 bc 0b b7 e6 3c 6e 12 a0 be
       -0.0021956114 -0.019873107 0.028163454 -0.3126406
000020 68 a6 08 3a 96 26 cf 3b b9 01 3d 3e 52 22 00 be
       0.0005212785 0.0063217385 0.18457688 -0.12513092
000030 9e 3b 2c bc b8 96 aa bd 58 30 75 3b ea 98 8b bc
       -0.010512261 -0.083295286 0.0037412848 -0.017040689
000040 77 a9 6a be 76 1c dd be ac 9c de be ff f6 f9 be
       -0.22916208 -0.43185776 -0.43478906 -0.48821256
000050 ed 1b b2 bd 2c b7 66 be ec 86 84 bc 92 0a 10 3e
       -0.08696733 -0.22530812 -0.016177617 0.14066532
000060 b7 a3 11 bb b8 5a 0c 3e 3a 62 94 3d 2c 9d 06 3e
       -0.0022222826 0.13706481 0.07245298 0.13145894
000070 fc a5 07 3e 8d 55 17 bc ce c8 d9 be a4 a2 55 bb
       0.13246912 -0.0092367055 -0.42536014 -0.0032598162

conv2.weight f4 [64, 32, 3, 3]
000000 13 0d 71 3c 43 94 81 3c 4c d2 47 3d 45 20 d0 bc
       0.01471259 0.015817767 0.04878454 -0.025406012
000010 3e 58 d1 3d 31 04 44 3d c4 04 d0 3d bc 7b 1e 3e
       0.10221909 0.04785556 0.10157159 0.15476888
000020 e5 28 be 3d f8 cf ed bc b7 87 92 3d 46 55 ad 3d
       0.09285144 -0.029029831 0.07154792 0.0846353
000030 5a 4d 6f 3c 91 c1 4b 3d ab 8a 9d 3d 38 a0 ae 3c
       0.014605844 0.049745146 0.076924644 0.021316633
000040 62 20 ff 3c 7f ce 70 3d a3 b3 c9 bd 45 d8 9b bc
       0.031143371 0.05879068 -0.09848716 -0.019024024
000050 83 25 c8 bd e8 41 a5 3d 8e d5 ed 3d 0c 0c 06 3d
       -0.0977278 0.08069211 0.11612998 0.032726333
000060 5f d8 50 3e 08 32 3b 3d ee 90 0f 3e f7 af 54 bc
       0.20395039 0.04570201 0.1402013 -0.012981406
000070 e9 f7 7f 3c f0 5f 63 3c 88 1c 75 bc d3 f3 6c 3d
       0.015623071 0.013877854 -0.014960416 0.057849716
000080 67 a8 f5 3c 2f 18 49 bd f3 f7 10 3d f8 46 9b 3c
       0.029987527 -0.04909533 0.035392713 0.018954739
000090 eb b0 9e bd 60 0d 4e 3c e2 63 07 bd 01 ce 0c 3e
       -0.07748588 0.012576431 -0.03305424 0.13750459
0000a0 72 34 ba bd e4 d2 01 bd c2 1c 71 bc cb 13 30 be
       -0.090920344 -0.03169526 -0.014716329 -0.1719505
0000b0 55 60 4a be d9 92 40 bc 18 ff 03 be 63 e9 ce 3c
       -0.1976331 -0.011753761 -0.1289028 0.025257772
0000c0 7b 79 c2 bd 57 1e 78 3d 1c d1 a9 be af 69 55 be
       -0.09495827 0.06057581 -0.3316735 -0.20841096
0000d0 60 ab e2 3c 92 8e d0 be 1f 4b 6b bd 32 44 a1 bd
       0.027669609 -0.40733773 -0.057444688 -0.07874335
0000e0 80 aa d3 bc 62 aa 2c bb 07 c3 c8 bd c6 ce fb bc
       -0.025838137 -0.0026346673 -0.098028235 -0.030738246
0000f0 aa 9a 9e bc 14 01 e1 bd d9 c6 9e bd 9d 08 96 3c
       -0.019360859 -0.10986534 -0.07752771 0.018314654
000100 af 41 77 3c c3 b7 24 bc 9e 46 6f bd 47 72 2f 3d
       0.015091344 -0.010053578 -0.058416955 0.042833593
000110 86 d7 44 3d fd d3 7a 3d 56 79 4b 3d 25 e8 cf 3c
       0.0480571 0.061237324 0.04967626 0.02537925
000120 bf 87 cf bd a4 14 e8 bd b0 de 0b be c6 dc 03 be
       -0.101333134 -0.11332062 -0.13659167 -0.12877187
000130 0a d9 61 be b0 f1 66 bd ed df 41 bd f6 a9 6d be
       -0.2205545 -0.056382835 -0.047332693 -0.23209366
000140 da 4f 8e bd 3b 45 2e bd 68 93 b3 3d bf e3 9c 3b
       -0.06948824 -0.042546492 0.0876835 0.0047878916
000150 78 69 b1 bc f8 ae 53 3c ef 78 fd 3d db 3e af bb
       -0.021656737 0.012920134 0.12376582 -0.005348069
000160 2f 34 32 3c 50 2a 30 bd 2c d1 7c 3c 2c 9e 0e bd
       0.010876699 -0.043009102 0.01543073 -0.034818813
000170 05 d6 b3 bd 33 fd 66 bd ea e5 93 bb 5b 26 4e be
       -0.08781055 -0.056393813 -0.004513492 -0.20131819
000180 54 a5 a2 bc 76 ea 60 bd 59 02 02 be e6 56 32 3d
       -0.019854225 -0.0549111 -0.12696208 0.043539904
000190 5a 64 4a 3d 8f c7 88 3d 2e 0a 87 bd 96 1d 6d bd
       0.04941211 0.06678688 -0.065937385 -0.057889543
0001a0 ce 90 a5 bd 54 26 2d bd 70 56 bd bd 56 08 17 bd
       -0.0808426 -0.04227288 -0.09245002 -0.036873184
0001b0 6a 81 28 be da 75 87 3d 3f 5c 81 bd 68 2d ea bd
       -0.16455618 0.06614275 -0.06316423 -0.11434442
0001c0 d7 22 b5 bd df 52 90 bd bf f3 64 bd 6f ac bf bd
       -0.08844536 -0.070470564 -0.055896517 -0.09359061
0001d0 da f5 1a bd cd 14 b6 3d 1e 86 60 bd 25 67 0e 3e
       -0.03783212 0.08890686 -0.054815404 0.13906534
0001e0 36 25 6e bd 04 9f 53 3d ad 5d 1d 3e 0e 1f 71 3d
       -0.058140956 0.05166532 0.15367766 0.058867507
0001f0 fb 6b cd 3d 41 8d d3 bd aa 92 7e bc 3b 31 94 bd
       0.10030361 -0.103296764 -0.015537897 -0.072359525
000200 f3 5f 9b 3c ae 90 8a bd fa de 6c 3c e1 23 d6 bd
       0.01896665 -0.06765877 0.014457459 -0.10456062
000210 29 4f 10 be 3a c3 2f 3d bd 67 56 be 23 ea 83 bd
       -0.14092697 0.042910792 -0.2093801 -0.064411424
000220 c8 51 d1 bc 0c cf 56 bc b9 04 df bd 43 f9 d4 3d
       -0.025551692 -0.013110887 -0.10889573 0.103991054
000230 38 bf 8d be 22 dd 2a be c9 52 b8 3d a1 fc a2 be
       -0.2768495 -0.16685918 0.09000165 -0.31833366
000240 b4 d9 c3 3d a3 c0 1c 3c e8 22 fe bd b1 86 4d bd
       0.09563008 0.009567413 -0.124090016 -0.05017728
000250 1b d1 a5 bd 0f 8c a0 3a 99 d2 da bb be ec b8 bd
       -0.08096524 0.0012248772 -0.006677937 -0.0902953
000260 22 96 29 3c f1 1e 27 3d 8f 01 a6 3d 09 6e f2 3c
       0.010350736 0.040800992 0.08105766 0.029593484
000270 09 4a 9e bb 30 d6 cd 3d 88 7e c1 3d c5 ef 60 bc
       -0.004830603 0.10050619 0.09447962 -0.0137290405
000280 70 ae d4 3d fe bf 02 3e 7d 62 9b 3d 20 ff 14 3e
       0.10384834 0.12768552 0.075871445 0.14550447
000290 c2 13 12 3e c1 8f ae bd 3b b8 26 3e b5 23 c1 3d
       0.1426535 -0.08523513 0.16281216 0.09430639
0002a0 18 72 e8 bb f8 04 c9 3d 0e 85 83 bb 8b 05 07 bc
       -0.007093679 0.09815401 -0.004013664 -0.008241068
0002b0 eb 85 00 3e 75 87 1e 3e 6c d9 27 3d 1c 06 14 3e
       0.12551086 0.1548136 0.040978834 0.14455456
0002c0 06 31 6b 3d 35 72 84 bc 72 f3 6e 3d 85 60 8a 3b
       0.0574198 -0.01616774 0.058337636 0.004222932
0002d0 ff 78 aa bc be c3 9b 3d 47 e9 19 be a3 ae 66 3d
       -0.020809649 0.07605694 -0.15030394 0.05631889
0002e0 cd b2 df bd b6 ef 2b bd a8 7b 35 bd e7 28 c0 bd
       -0.109227754 -0.041976653 -0.04430738 -0.093828015
0002f0 da 39 82 3c 46 d3 66 bc d3 91 49 3d 41 99 c1 bd
       0.015896726 -0.014088457 0.049211334 -0.09453059
000300 be ca 8f bd ba 0e b3 bd a0 38 e6 3c d6 eb 97 3c
       -0.07021092 -0.08743043 0.028103173 0.018545073
000310 0d 50 77 be de 62 00 3c d7 d7 50 bd 52 34 9f bd
       -0.2415163 0.007836072 -0.05098709 -0.07773651
000320 5d 87 ea bd fd 9f c7 bc 87 cd 39 be 01 25 b5 3c
       -0.114516 -0.02436828 -0.18144809 0.022112371
000330 ba d1 f9 3c 8e b1 8e be 27 3c 8d bd 38 ae c8 bd
       0.030495513 -0.27869838 -0.06896239 -0.097988546
000340 c4 5a af 3c e9 0c 9a 3d cf 59 cb 3c b3 b4 f6 3b
       0.021405585 0.07521994 0.024823098 0.0075288652
000350 f3 0a b0 3c 77 4f 6e 3d 25 b4 25 bd b2 92 b1 bd
       0.021489596 0.058181252 -0.040455002 -0.08670558
000360 11 bc 4d bd 04 07 b8 bd 25 7b d9 3d 61 31 93 bd
       -0.050228182 -0.08985713 0.10619191 -0.07187153
000370 87 f8 30 3d 5c f0 e8 bd be e2 06 be 2b 92 cd 3c
       0.043205764 -0.1137397 -0.13172433 0.025094112
000380 98 1f 77 be 5a 7d e5 bd 3c 90 4e be 34 a5 8d bd
       -0.24133146 -0.112055495 -0.20172209 -0.069162756
000390 62 67 b0 bd 2e 0a ba bd 92 27 83 3b 3f 8a 2c bd
       -0.08613469 -0.09083973 0.00400252 -0.04212403
0003a0 34 05 ae bd 34 86 b0 bd 73 e1 8b bd 63 9c b5 3c
       -0.08497086 -0.08619347 -0.068301104 0.022169298
0003b0 20 61 c7 bc e7 6e 82 3b e0 8a 33 3d ad 6b ba 3d
       -0.024338305 0.0039805057 0.043833613 0.09102569
0003c0 12 c9 1d 3c b7 68 57 3d b6 4c 35 bd 58 9c f3 3c
       0.009630458 0.0525901 -0.04426261 0.029737636
0003d0 ef cc 89 ba 08 aa 5a 3d 88 e8 3a bc b2 72 4b bc
       -0.0010513345 0.05338481 -0.011407979 -0.012417482
0003e0 35 78 76 3d 2e 72 76 bb a1 b2 fb 3c 25 b6 9f 3d
       0.060173232 -0.0037604677 0.030724825 0.07798413
0003f0 0c 1f 65 3c 93 48 6b 3c c2 fe f0 3c d3 86 79 3d
       0.013984453 0.014360565 0.029418353 0.060919594

conv2.bias f4 [64]
000000 55 c4 a3 3c c1 74 1a be 6e 58 4e bd 24 a9 2b be
       0.01999108 -0.150836 -0.050377302 -0.16763741
000010 06 61 b9 39 77 bc 6b bd ca a2 50 3e 3a 1c cf bd
       0.00035358238 -0.05755278 0.20374599 -0.10112806
000020 4a be bd 3c cb 26 a0 3d 5f 5a de 3d 7b a1 63 bc
       0.023162026 0.07819899 0.10857081 -0.01389348
000030 58 0a c9 bc ee 87 45 3d 43 4d c2 bc f2 c0 bd 3d
       -0.024541065 0.048225336 -0.023718482 0.09265317
000040 1d 29 b1 bc 99 05 89 bd 21 b1 1c 3c 66 bd 46 bd
       -0.02162605 -0.06690521 0.009563715 -0.04852047
000050 da d1 d9 bc ab 7d f3 3d 44 00 0f bd 49 f8 70 3d
       -0.026589323 0.11889204 -0.034912363 0.058830533
000060 ce 2d 82 bd 10 ca cb 3c 4f fc 34 be d4 95 96 bb
       -0.06356393 0.024876624 -0.17674373 -0.0045954976
000070 82 aa 08 3e 1b 5b e3 bd c8 b9 07 3d bc 6d 2b bd
       0.13346294 -0.11101361 0.03313616 -0.041852698
000080 79 92 8f bc ed b5 93 bd 36 be 74 bd 85 cd 12 bd
       -0.017525898 -0.07212434 -0.05975171 -0.03584053
000090 d0 0f a7 bd 7e 62 af bd ab 68 5c bd b2 99 63 3c
       -0.08157313 -0.08563708 -0.053810757 0.013891624
0000a0 ed ea 6c 3e bb 43 27 bb 51 c0 e7 bd c1 8d 01 be
       0.23136492 -0.0025522548 -0.11315978 -0.12651731
0000b0 a2 67 ae 3d 70 38 e9 3d c2 16 f6 bc 5b c5 2c bd
       0.0851586 0.11387718 -0.030040149 -0.0421804
0000c0 e6 b5 96 bb aa ad e0 bc 3e e4 e0 bc 1a d8 b9 bd
       -0.0045993207 -0.02742656 -0.027452584 -0.09074421
0000d0 b6 9c a3 3c 13 cd 35 bc 97 79 78 bd e0 ed 98 b6
       0.019972187 -0.011096257 -0.060662832 -4.5576453e-06
0000e0 0e b2 9a bd af f1 9b 3d 89 09 2a be 43 00 b5 3c
       -0.075534925 0.07614457 -0.166052 0.022094851
0000f0 a1 85 1d bd c8 4d aa 3c a7 e3 85 bd 02 b3 c2 bd
       -0.038457517 0.020789042 -0.06537562 -0.09506799

fc1.weight f4 [128, 1600]
000000 b1 c5 f6 3c 03 c6 4c 3d 13 2f 52 3d f7 8d 93 3a
       0.030123563 0.049993526 0.051314425 0.0011257519
000010 f8 38 cc bc c7 eb a3 3c 03 a5 2e bd 5d 8c 33 3d
       -0.024929509 0.020009888 -0.042637836 0.043835033
000020 c3 ce ca bd 0f 29 a0 bc 80 23 30 3b 01 6f 81 bc
       -0.09902718 -0.019550828 0.0026876628 -0.015800001
000030 bf c9 cc 3d ca 9e 80 3c 69 94 13 3e 81 ae 72 bb
       0.099994175 0.015700717 0.14412083 -0.0037030282
000040 09 71 aa bd 69 10 c6 3d 1d 49 f6 bc cd 93 81 3d
       -0.08322341 0.09671099 -0.03006416 0.06327019
000050 99 e7 68 bd bc 9a 31 bd e1 1b 35 3e 7b c7 c8 bc
       -0.056861494 -0.043360457 0.17686416 -0.024509182
000060 0e ef c2 bc ad 8e 77 3c 1d e7 d3 3c fe bb d2 3d
       -0.02379563 0.0151097 0.02586704 0.10289763
000070 de 4e 70 3c f3 0f d7 bd 42 b5 66 3d 07 59 f0 bc
       0.014667241 -0.10501089 0.056325205 -0.029339327
000080 69 50 a3 3d 7c 3f b3 3d 8c 06 01 bd 43 43 0c 3d
       0.079743214 0.08752343 -0.031500384 0.034243833
000090 1b 2b 3c 3d d1 0f 7b 3d 3a a2 ab 3d a6 ab 9a bc
       0.045939546 0.06129438 0.08380552 -0.018880676
0000a0 86 65 b8 3c 52 88 25 bd 72 9d 96 bc c3 28 29 ba
       0.022509348 -0.04041321 -0.018385623 -0.00064529123
0000b0 56 00 dd bb 3f 45 29 bc 4a 0a 92 3c 0b 13 91 bd
       -0.006744425 -0.010331451 0.017827172 -0.0708371
0000c0 9e 6f 4c ba 44 4d 13 bd 23 2b 45 bc d6 30 01 3d
       -0.00077986147 -0.035962358 -0.01203421 0.031540714
0000d0 a7 24 4d 3c c9 84 a5 bd b6 b6 b4 bb 85 e7 2c 3d
       0.012520946 -0.080819674 -0.005514945 0.04221298
0000e0 76 a6 ba bd 3d 13 96 3d 2b 12 22 bd be 0f 6b bd
       -0.09113781 0.07327888 -0.039568108 -0.05738806
0000f0 0b a8 0c 3d 24 cd d2 bc 22 48 1b 3e 21 3d 61 3c
       0.034339946 -0.025732584 0.15164235 0.013747484
000100 66 9d 02 be f9 72 20 3d c7 96 16 3d dc 8f 1b 3d
       -0.12755355 0.039172146 0.036764886 0.037978992
000110 63 75 96 3d 93 68 bd 3d c5 e8 a2 3d 17 a1 8e bd
       0.073466085 0.092484616 0.079545535 -0.06964319
000120 ce 4e 39 3d de 71 3e 3c 11 e1 c1 3d f4 9d e2 3c
       0.04524117 0.011623828 0.09466756 0.027663209
000130 cb 2d 48 bd 1d 41 a2 3c 9f 2e f0 bc d9 23 ff bb
       -0.048871797 0.019806439 -0.029319106 -0.007786256
000140 0d 51 78 3d 27 33 66 bd e2 fe b5 3d 31 89 d6 3d
       0.06062417 -0.056201126 0.08886506 0.10475386
000150 5f 7f 7f bd 00 a8 9c 3d eb 31 80 bc 1d 9d aa 3d
       -0.06237733 0.07649231 -0.015648803 0.08330748
000160 49 c7 75 3d c4 f7 98 bc ca b4 1c bc 4e da d3 3c
       0.060004506 -0.018672831 -0.009564588 0.025860932
000170 9c 11 b8 3d c3 a9 0a 3d 1f ba a1 bc 9f 17 9a bd
       0.08987734 0.033853304 -0.01974207 -0.075240366
000180 5f 0b 35 bc 2d fd a4 bc 81 4e 03 3c 8d 97 f4 bb
       -0.011050074 -0.020140255 0.008014322 -0.0074643553
000190 a5 cf 5c 3d db ec c0 bd 7e 15 64 3d d7 de 67 bb
       0.053908963 -0.094201766 0.05568456 -0.0035380626
0001a0 e2 e2 3c 3d 32 e9 99 3d a6 0d 0d 3c 1a 18 48 bd
       0.04611481 0.075151816 0.008609211 -0.04885111
0001b0 40 3c 17 bc e2 d3 3c 3d 45 14 03 3c 85 06 dc 3c
       -0.009230673 0.046100505 0.008000438 0.026858578
0001c0 25 1b 63 ba 20 ea 04 be ca df 8e 3d 54 ed 98 3d
       -0.00086634076 -0.12979937 0.06976278 0.07467142
0001d0 e4 12 3e bc 00 46 aa 3c e1 15 b3 bd 71 44 58 3d
       -0.011601184 0.020785332 -0.087444074 0.052799646
0001e0 7b c1 12 bd f4 94 12 3d 8b 2b 1f bd aa a7 f3 bd
       -0.03582905 0.035786584 -0.038859885 -0.11897214
0001f0 a5 97 22 bd 74 a7 1d be d2 c6 96 bc 3b 54 d9 3d
       -0.0396954 -0.1539591 -0.018405352 0.10611769
000200 88 a5 54 3e f5 ca 5c 3c 9c 78 96 bd 4c ea 66 bd
       0.2076627 0.013476123 -0.07347223 -0.056375787
000210 80 c2 9a 3c 16 99 d8 3d 00 da ff bc c7 1b 7e 3d
       0.018891573 0.10576074 -0.03123188 0.06203821
000220 9b 8e 4b bd 67 67 28 3d 6e 2d 0e 3d a8 a9 38 3b
       -0.049696546 0.041114237 0.034711294 0.0028177295
000230 8d 8e 69 be 25 47 19 be b4 f8 89 3d 8f 56 f3 bc
       -0.22808285 -0.14968546 0.067368895 -0.02970436
000240 2b a8 62 be 7d 92 01 be 0c 47 20 be ae 0a 01 3e
       -0.22134463 -0.12653537 -0.15652102 0.1260173
000250 12 38 ec 3b a7 5c 4d be 59 b0 a0 3d 7d ce 4d 3d
       0.0072088325 -0.20054875 0.07846136 0.05024575
000260 41 48 cd 3d 7e c3 52 3e 07 85 ea 3d 7d 26 6f 3d
       0.10023547 0.20582387 0.11451154 0.058386315
000270 94 33 41 3e ed 27 bf bc a5 c0 49 3d 12 64 ac 3d
       0.18867332 -0.023334468 0.049255986 0.084175244
000280 ea 04 b1 3c ff 10 87 3d cc 09 23 bb d6 9b 1e bd
       0.021608789 0.065950386 -0.0024877666 -0.038722835
000290 c4 b1 ce bd 51 f6 c5 3c 44 17 55 3d 5f c8 84 bc
       -0.100925 0.024165304 0.05202414 -0.016208826
0002a0 d2 2b 56 bd 84 e2 b7 bd 41 a6 01 bd 9a e8 9c 3d
       -0.052287884 -0.08978751 -0.031652693 0.07661553
0002b0 b4 a3 b9 3d bc d7 b8 bb 85 be 10 be c9 a3 4e 3d
       0.09064427 -0.005640952 -0.14135177 0.050449166
0002c0 f5 25 24 bd e2 b4 65 3c 18 46 3b bd 8b 75 84 bd
       -0.04007526 0.014020177 -0.045721143 -0.06467732
0002d0 e8 1f 5b bc 5d 08 58 be 55 ef ed 3b 24 0c 36 3c
       -0.013374306 -0.2109694 0.0072611966 0.011111293
0002e0 40 34 42 bd 03 0a 60 3c 27 19 e4 bd 1d ab 43 3d
       -0.04741311 0.013674262 -0.1113761 0.04777061
0002f0 68 87 9f ba 3f df 4a 3d dd 48 82 3d 3c 99 2d be
       -0.0012171092 0.04952931 0.06361554 -0.16952986
000300 72 dd de 3c 8e 24 0b bc a1 37 a1 3d f7 e5 52 bb
       0.027205203 -0.008492602 0.078719385 -0.0032180527
000310 18 f2 46 be 67 bc a1 3d 79 fb 11 3d ff 1c bc bc
       -0.19428289 0.07897263 0.035640214 -0.022963045
000320 bb fc 07 be 94 e4 1a 3e 72 48 28 bc 71 36 a6 bd
       -0.13280003 0.15126258 -0.010271179 -0.081158526
000330 14 bb a7 3d 9b 1f 0f 3e 89 57 93 bc d2 06 09 be
       0.08189979 0.139769 -0.017986076 -0.13381508
000340 4d 8e 80 3c ea b5 80 bd 58 fa 98 3c 0c 80 e9 3d
       0.015692854 -0.06284697 0.01867406 0.11401376
000350 87 54 0d bc 9e aa 1a 3d ad a8 33 3d 10 6e c2 3b
       -0.00862611 0.03776037 0.043862034 0.0059335306
000360 68 e8 0d 3d 75 8f 6f bd 47 da 33 bc 54 e8 37 bc
       0.034645468 -0.05848642 -0.010977334 -0.011224825
000370 1a 42 cc 3c de cf 7d 3c 00 d2 86 bd 0e c4 3c 3c
       0.024933863 0.015491454 -0.06583023 0.011521352
000380 74 f8 78 bd 2e a9 2e 3e 84 ea 5b 3c 3d 78 cf 3d
       -0.06078382 0.17056724 0.013422612 0.101303555
000390 e7 c6 b5 3c a2 e5 d0 3c 40 95 69 bd 02 25 dc 3d
       0.02218957 0.025500122 -0.0570271 0.10749246
0003a0 4d e1 78 3c d9 a5 11 bd af 94 9d bc 99 9a bb bd
       0.015190435 -0.035558555 -0.019235937 -0.091603465
0003b0 8a b7 03 bb 0c 58 46 bc 4e 61 e5 bd c0 c3 f0 bc
       -0.0020098411 -0.012105953 -0.112002 -0.029390216
0003c0 2b 6f ac bd 0e b9 29 bd c7 c0 db bb 11 de 9f bd
       -0.08419641 -0.041436248 -0.0067063305 -0.07806028
0003d0 9c 8f 87 bd 5a e0 43 be 81 93 10 bc 28 0f af 3d
       -0.06619188 -0.19128552 -0.00882423 0.08547813
0003e0 a1 da 99 3c c0 00 80 bd 73 07 a6 bd 47 2e 01 3d
       0.018781008 -0.06250143 -0.081068896 0.031538274
0003f0 5d e6 6f 3d 86 68 9b 3d 44 d6 67 bd d0 b3 10 bd
       0.0585693 0.07588296 -0.056600824 -0.035327733

fc1.bias f4 [128]
000000 d3 62 5b 3d d5 fa 8f bc fe 48 16 bd 7c e3 d2 ba
       0.053561043 -0.01757566 -0.036690705 -0.0016089524
000010 d7 64 94 3d bf 59 0a bb a1 a0 81 3c 41 c3 03 3d
       0.07245796 -0.0021110622 0.015823664 0.03216863
000020 c1 43 82 3d 4d 4d 68 3d 80 ca 22 bd 37 70 0d bd
       0.06360579 0.056714345 -0.0397439 -0.034530845
000030 2f c0 b0 bc 6a 09 3c 3d 7c 80 24 3d 03 99 8d 3d
       -0.021576015 0.045907415 0.040161595 0.0691395
000040 94 80 74 3c 66 e3 b1 3d 5c 1a c1 bc d2 14 f9 3c
       0.014923234 0.08685951 -0.02357214 0.030405436
000050 c2 4a 44 3d 34 e4 7e 3d c1 9d 75 3c fe 70 6a 3d
       0.047922857 0.06222935 0.014991225 0.057236664
000060 99 3d cb bc 0c e1 29 3d 65 1b 6a 3c 03 51 20 3d
       -0.024809645 0.041474387 0.014288758 0.03913976
000070 1b 16 3b 3d 5e 8f 26 bd ba bf 83 bb dd f7 91 3d
       0.04567538 -0.04066407 -0.0040206583 0.07127354
000080 29 d3 21 3c a0 da 72 39 cd ff 4c bc 72 3a f6 bb
       0.009877005 0.00023160363 -0.0125121595 -0.0075142914
000090 67 ea 29 bb 70 5c b2 3d 2d 7d f2 bc 24 e5 83 bb
       -0.0025927068 0.08709037 -0.029600704 -0.0040251184
0000a0 89 6e 90 bb cf e8 e3 3a 21 b2 99 3d ce 51 10 3d
       -0.004407708 0.0017388108 0.075046785 0.035234265
0000b0 92 42 d3 bb e9 f1 6a bc ec c8 47 3c 9f ae bd bb
       -0.006447145 -0.014339902 0.0121939 -0.0057886387
0000c0 55 56 3b 3c b5 b5 89 3c 52 bb e0 bc e9 c4 bf bc
       0.011434157 0.016810277 -0.027433071 -0.023409324
0000d0 57 c5 12 3c da 95 16 bd 11 71 10 bc bd 1e 8c 3c
       0.008958182 -0.036764003 -0.00881602 0.0171045
0000e0 db 90 6b bb d9 44 8f 3d e7 24 ef 3c dd dc 13 3c
       -0.0035944495 0.069955535 0.029192401 0.009024826
0000f0 c5 f8 b4 bc 61 6f 90 bb 1d 21 3a bd 59 de ec 3b
       -0.022091279 -0.0044078087 -0.045441736 0.0072286543
000100 6f 3e 08 3d 74 7f 8b 3d 2e 76 58 3d 52 8f 33 bd
       0.033262666 0.06811419 0.05284708 -0.043837853
000110 90 8c 00 bd 0b 72 bf bc b2 6c a4 bc 18 39 fc 3c
       -0.03138405 -0.02336981 -0.020071361 0.030788943
000120 3e c1 be bc 24 55 94 bc 65 e1 66 3d 8b 3e 0d 3c
       -0.023285504 -0.018107004 0.056367297 0.008620868
000130 b8 23 16 bd fd 29 91 bc 4a 49 9b 3d 0f a9 4e bc
       -0.036655158 -0.017720217 0.07582338 -0.012613549
000140 b3 74 a6 3c 04 e8 22 3d e6 cd 6c 3c e8 3f 98 bb
       0.020319318 0.03977205 0.014453387 -0.00464629
000150 7d 5c 93 b9 20 49 75 3d 94 01 6e bc 47 c8 e3 3d
       -0.00028106934 0.05988419 -0.014526743 0.11122184
000160 88 97 3a 3c 5c 00 d5 bc ec 95 41 3d 07 ea c1 bc
       0.011388667 -0.026001148 0.047262117 -0.023671163
000170 bb a6 8d bd 6b ef 49 3d 2f 95 57 bc aa 53 7a bc
       -0.06916567 0.049300592 -0.013158127 -0.015278736
000180 62 d8 72 bd e3 b3 b4 b9 c4 94 06 3d 4a 97 17 3d
       -0.05928839 -0.000344663 0.032856718 0.037009515
000190 00 a2 a1 bc 58 b2 d5 bb fb 89 04 bc b4 a6 b1 bc
       -0.019730568 -0.0065215044 -0.008089538 -0.021685936
0001a0 2b 17 c1 3d e0 1a c6 3d bb 96 eb 3c 03 31 85 3c
       0.09428247 0.09673095 0.028758397 0.016258722
0001b0 24 7f b1 bc 39 48 18 3a f2 2e e6 3b b0 50 f2 bb
       -0.02166707 0.0005809102 0.0070246393 -0.0073948726
0001c0 d0 2d a6 3c a6 ec df bc 11 09 26 3c c1 ed 95 bb
       0.020285517 -0.027334522 0.010133998 -0.0045754616
0001d0 20 69 d4 3b 48 98 48 3d ab a0 8a 3d 8d bf 45 3d
       0.0064822584 0.04897335 0.06768926 0.04827838
0001e0 9f 3b 30 3d e4 a6 7f 3c 90 55 21 3c cc 7b ee bc
       0.04302561 0.015603755 0.00984706 -0.029111765
0001f0 d2 28 ca 3c f9 11 6a 3d d0 9e 0a 3d 36 ca 59 bc
       0.024677668 0.057146046 0.03384286 -0.01329284

fc2.weight f4 [10, 128]
000000 9c 3a cd 3d 35 d7 3c bd bd fe dd 3c 52 da c1 bd
       0.100209445 -0.046103675 0.027099008 -0.094654694
000010 18 17 8c bd 2f 8e 22 3d 7e a2 23 3d 72 d8 16 3e
       -0.06840342 0.039686378 0.039949887 0.14731005
000020 55 88 b3 bd 05 43 e4 3c 37 e6 91 be 2e 62 98 bd
       -0.08766238 0.027863989 -0.28495952 -0.07440601
000030 d3 ca b4 bb 7d ab 23 be 9f e7 17 be 02 bb e9 bd
       -0.0055173426 -0.15983386 -0.1483445 -0.11412622
000040 cf d8 5c 3d 4a fb 3d be 7a 1a 97 3b c1 29 e0 3d
       0.053917702 -0.1855289 0.0046113105 0.10945464
000050 bd ea 43 bd 22 f1 d2 3d 79 3f 56 3d 55 23 ef 3d
       -0.047831286 0.10299899 0.052306626 0.11676661
000060 01 09 99 bd 60 73 9b bd f3 be ad 3d 72 ad f2 bd
       -0.074724205 -0.075903654 0.08483686 -0.11849488
000070 e9 96 87 3d c5 47 af bd 72 e3 28 3d 1d a2 08 bd
       0.06620581 -0.08558611 0.041232534 -0.03335773
000080 c4 bc 86 3d 0f 09 8f bd 55 25 40 bd ee e8 c7 bb
       0.06578973 -0.0698415 -0.046910603 -0.0061007654
000090 d8 8a 7f 3d b1 4a 54 be a4 4d aa bc 1d c5 2f 3d
       0.06238827 -0.20731618 -0.020788975 0.04291259
0000a0 6d 24 02 3d 7a 6b 22 3d d7 af 94 bd b0 00 00 bd
       0.03177302 0.03965328 -0.07260101 -0.031250656
0000b0 b1 d9 48 bd 1e ca e0 3c f9 77 4e 3c 4c 85 11 3d
       -0.04903573 0.027440127 0.012601846 0.035527512
0000c0 6b d9 7a bd 69 5e 4b 3d 05 fd c4 3d a0 ec a6 bd
       -0.061242502 0.049650583 0.09618572 -0.081506014
0000d0 e5 b7 1c 3c f1 86 03 3e 9f db f1 bb be 97 1b be
       0.009565328 0.12844445 -0.007380917 -0.15194604
0000e0 11 ee 9f bc ec b5 b0 bd c0 b9 d8 bd b7 b9 87 3d
       -0.019522699 -0.08628449 -0.10582304 0.06627219
0000f0 89 91 02 3d d8 4a 29 bd 7f 8c 04 be 42 b6 54 3c
       0.031877074 -0.041331142 -0.1294422 0.012982907
000100 08 96 d0 3d 52 38 8e 3d 1a 88 10 bd ac 12 2b 3d
       0.10184866 0.06944336 -0.035286047 0.041765854
000110 78 0f 17 bb 2c 1e 16 be 9b 46 ab bc 61 30 f4 bd
       -0.0023049992 -0.14659947 -0.02090769 -0.1192329
000120 23 5a 18 3d 48 e0 a5 bd 13 34 39 bd d2 a5 3c 3d
       0.037195336 -0.08099419 -0.045215677 0.046056576
000130 e4 c8 8b bd 2b a4 f9 3d e5 68 52 3d 31 eb 7d bb
       -0.06825426 0.12189516 0.051369566 -0.0038744921
000140 0a 8b 61 be c5 b1 93 3d c2 df b0 3d b8 b3 13 3d
       -0.22025695 0.07211641 0.086364284 0.036060065
000150 c5 b6 79 3d 37 5a 9e 3d 8b 80 b3 3c e1 6d 44 be
       0.06096532 0.07732051 0.02191188 -0.1918254
000160 2c ba 8f 3d 08 51 6b bd 85 be 33 bc cc 9d c1 bd
       0.07017931 -0.057450324 -0.010970716 -0.094539255
000170 7a b5 42 be c0 65 31 3d 4e ad 8e bc 86 bd ad bd
       -0.1901454 0.043309927 -0.017416622 -0.08483414
000180 d1 79 37 3d 05 11 e8 3c 87 01 cb 3d 1f 1d f1 3c
       0.044793908 0.028328428 0.09912401 0.029432831
000190 78 38 de bc 11 72 56 bd 36 7e 2d 3d 20 87 2f bc
       -0.027126536 -0.052354876 0.042356692 -0.010713369
0001a0 fa fb b3 bd 58 bb 8a 3c 06 0e 45 be 01 c6 03 be
       -0.08788295 0.016935036 -0.19243631 -0.12868501
0001b0 f5 fa b6 bc 96 07 fd bc 6c bb 17 bd 88 2a c9 bd
       -0.022336463 -0.030887406 -0.037043974 -0.09822565
0001c0 47 46 be 3b bf 5e 6d bd 4e d6 06 3e 99 7b 64 bc
       0.0058067176 -0.057951685 0.13167688 -0.013945484
0001d0 dc 2d d9 3d 3e 2b 13 be 15 99 06 be 24 46 64 bd
       0.1060445 -0.14371964 -0.13144334 -0.055730954
0001e0 43 e0 91 bb 2a d9 e8 3b 5d a0 12 3c e0 33 69 3d
       -0.004451783 0.007105966 0.008949366 0.056934237
0001f0 7a d6 29 bd 92 f4 ec bd 28 be d7 bd 68 14 bb bd
       -0.041464306 -0.115700856 -0.10534316 -0.091347516
000200 81 bf 0c 3e d4 e7 82 bd e2 7d ed 3d 59 e9 49 3d
       0.13744928 -0.06391874 0.11596276 0.049294803
000210 4e 93 07 be ce 38 8d bd 34 84 3e bd e0 1d 7f 3d
       -0.13239786 -0.068956 -0.046512797 0.06228435
000220 b6 8f 3e be 22 ec 32 be b4 70 3c 3d 97 6d 06 3e
       -0.18609509 -0.1747289 0.04600592 0.13127743
000230 a9 24 67 bd 42 8e be 3d c6 fc 84 bc b1 6c 52 be
       -0.056431446 0.09304477 -0.016233813 -0.20549275
000240 21 b8 6e bd 04 a0 31 3e c9 4d b6 bd 2e 19 47 be
       -0.058281068 0.17346197 -0.08901555 -0.19443199
000250 c6 2e 34 be 1f 90 1b 3d d3 7a f7 bd db 40 46 bd
       -0.17595968 0.03797924 -0.12083974 -0.048401695
000260 8c 5a 6c 3d d2 9d f8 3d b8 87 01 be cd 49 54 be
       0.05770354 0.12139477 -0.12649429 -0.20731278
000270 78 57 90 be da 32 8a bc 10 00 10 bd 3e 4e ae 3d
       -0.28191733 -0.016869951 -0.03515631 0.08511017
000280 90 e0 c7 3d 47 2b b1 bd f9 c1 4b bd 1f 0e ad 3d
       0.09759629 -0.086508326 -0.049745534 0.08449959
000290 a3 03 01 be 5c 69 34 be 16 cb 09 bd 8a 01 03 bd
       -0.12599044 -0.17618316 -0.033640943 -0.03198389
0002a0 b0 7d 80 be 0a 31 b6 3d c6 64 61 be 5b 85 74 be
       -0.25095892 0.08896072 -0.22011098 -0.23878996
0002b0 b7 3e 8a 3c e7 5b cd 3b cd 44 34 3c c5 72 bb bb
       0.016875608 0.006267059 0.0110027315 -0.0057204687
0002c0 b9 fa de bb 08 df 4f bd d1 67 3d be d4 35 90 bd
       -0.006804791 -0.05074981 -0.18496634 -0.07041517
0002d0 d0 0f 02 3d bc 7b 04 be 4b 46 13 bc 49 a1 3d bd
       0.03175336 -0.12937826 -0.008988927 -0.04629639
0002e0 6c 42 9b 3c 40 e7 03 bd d1 eb c6 3d 29 e9 21 3e
       0.01895257 -0.03220296 0.09712947 0.158116
0002f0 a9 e3 9e bc ff c3 9f 3d 44 c6 78 3d b8 2a e3 bd
       -0.019395666 0.07801055 0.060735956 -0.11092132
000300 a7 f2 26 3d 1f 2c a8 bb 44 c7 26 3e ca 5b d4 3c
       0.040758755 -0.005132213 0.16286951 0.025922675
000310 71 a8 ea 3c 8a 08 cd bd ee 5a 82 3b ff 9e 53 3e
       0.028644772 -0.10011394 0.003978125 0.20666121
000320 7d fe 97 bd 36 ba 89 bd d2 42 90 be 3f 76 80 bc
       -0.07421587 -0.0672497 -0.2817598 -0.015681384
000330 a1 ef ca bd a1 a0 8e 3d ba c3 72 be 0b 06 b4 3d
       -0.09908987 0.06964231 -0.23707476 0.08790215
000340 61 7b ed bd 7f 8f b4 bc 77 2f 8b 3c 2c 70 69 3d
       -0.11595798 -0.02204108 0.016990406 0.05699174
000350 77 66 1e 3c 21 b4 c1 3d ab e7 9a 3d f9 9d 09 be
       0.009667984 0.09458185 0.075637184 -0.13439168
000360 73 55 97 3d 31 0b 20 3c 9e 6f e1 bd 43 a4 9e 3d
       0.07389345 0.009768293 -0.110076174 0.07746174
000370 1f 0c a1 bd 30 83 5e be 3b bf a8 3d be 4a 8b 3d
       -0.0786364 -0.21729732 0.08239599 0.06801365
000380 10 50 ca 3c 97 bd 95 bc 69 a9 57 be 57 ca e6 bd
       0.02469638 -0.01827888 -0.21060719 -0.11269062
000390 de 41 9d bc 6d fc 02 bd 51 d3 01 3d f2 74 ee bc
       -0.019196447 -0.031979013 0.031695668 -0.029108498
0003a0 1a 8a ae bd b5 45 4f bd d9 1e 74 3d 40 2a 23 3c
       -0.085224345 -0.050603587 0.05959973 0.009958804
0003b0 2d 42 48 ba 2b d9 df bc b2 28 02 3b dd 2d 72 be
       -0.00076392555 -0.027325233 0.0019860682 -0.23650308
0003c0 37 f4 5e bd 1b 65 31 3d 1c ea 56 bd e1 7f 0e 3e
       -0.05443212 0.043309312 -0.052469358 0.1391597
0003d0 61 31 a9 bd 52 ce e5 3d 75 65 68 be b4 51 53 be
       -0.082613714 0.11220993 -0.22694953 -0.20636636
0003e0 ca 99 d4 38 ae 35 3e bd b0 11 38 3c b7 0f 03 3d
       0.00010137593 -0.04643791 0.011234686 0.03199741
0003f0 74 23 a8 3d 7f 1e e7 3d a5 e5 39 be 39 2c 07 bc
       0.08209887 0.112851135 -0.18154009 -0.00825029

fc2.bias f4 [10]
000000 88 87 e4 bc 33 46 fb bd cd 27 82 3d 13 3b 3f bc
       -0.027896658 -0.12269249 0.06355248 -0.011671799
000010 22 3d 50 3b ac c3 09 be d9 c3 fa 3d a8 40 81 3c
       0.003177472 -0.13453549 0.12244386 0.0157779
000020 97 c2 e1 bc 9a 39 24 bd
       -0.027558608 -0.040093996
